model.pth (torch_old, 136445 bytes, 5 tensors)

LSTM.weight_ih_l0 f4 [256, 66]
000000 67 af f3 bd d4 02 a4 3b ac cf cc bd 76 b1 9d bd
       -0.1189869 0.00500522 -0.10000548 -0.076998636
000010 15 ef 82 3d 4a ef 9e bd 0c b5 1f 3d 70 4d 61 bd
       0.063932575 -0.077604845 0.03899102 -0.05500549
000020 46 f0 f7 bd a9 c2 f6 bc 05 4a 79 bd bd 6e 37 3d
       -0.121063754 -0.030122118 -0.060861606 0.044783343
000030 49 59 97 bc cb c8 00 bc 14 b9 b3 bd 38 8c 0d 3d
       -0.018475192 -0.007860373 -0.08775535 0.03455755
000040 bd 53 fa 3d 34 d4 ab 3c d0 ed 52 bc ed 51 57 3d
       0.12223003 0.02097521 -0.012874082 0.052568365
000050 96 13 b6 3c e1 a1 42 3d f4 22 da 3d 7f 11 26 3c
       0.022226136 0.04751766 0.10651198 0.010136007
000060 88 80 e5 bd 58 0e 3a bd ea 4d 80 3d f5 72 57 3d
       -0.11206156 -0.045423836 0.06264861 0.052599866
000070 d0 28 4e bc 70 6a de bd 10 d6 a4 3d d3 e5 78 3d
       -0.012582973 -0.10860145 0.08048642 0.060766052
000080 8d 40 e2 3d bc a5 b6 bc 40 4a 7c bd 1c 70 91 3d
       0.11047468 -0.022295825 -0.061594248 0.07101461
000090 61 9f 63 3c a7 2e 3e bb f1 13 9e 3d be da fa ba
       0.013892979 -0.0029019506 0.07718647 -0.0019138677
0000a0 7d 5f bb bc 72 a4 fe 3c 4e 26 e0 3d d3 3f bf 3d
       -0.02287268 0.031084273 0.10944806 0.093383454
0000b0 6c 7e dc b9 2f 07 a1 3d 37 3e d9 3d e6 50 15 3d
       -0.00042055862 0.07862698 0.1060757 0.036454104
0000c0 ed 02 9d 3d 56 12 1e bd fd 08 d2 bd 43 3f 26 bc
       0.07666574 -0.038591705 -0.10255621 -0.010146919
0000d0 22 2a fa bd 9c 06 a2 bd be 78 04 3e c1 85 7d bd
       -0.122150674 -0.07911417 0.12936684 -0.061895136
0000e0 23 e3 fa 3d 5e 57 03 be 8d 3d f0 3d d4 c9 01 bd
       0.12250354 -0.12826297 0.1173049 -0.03168662
0000f0 9e 2b 4b bd 82 9a cd bc 76 db 6c 3d 96 2a 83 3d
       -0.049602143 -0.02509809 0.05782648 0.06404607
000100 ae 85 ce 3d fd aa b0 3d fd 72 d7 bd 81 44 ca bd
       0.10084091 0.086263634 -0.10519979 -0.09876347
000110 99 62 c8 bd b3 ce 9c 3d cc 5b 87 bd 71 4b ec bd
       -0.09784431 0.07656612 -0.06609306 -0.11537827
000120 7e 72 68 bc 18 80 fb 3c fa 9c d4 bd 4a 52 f0 bd
       -0.014187453 0.030700728 -0.103815034 -0.117344454
000130 a4 50 4e 3c 62 56 8b bd 14 4e d9 bd 24 d6 e6 bd
       0.012592468 -0.068035856 -0.10610595 -0.11271313
000140 d5 f2 e2 bd ec b7 a9 3c 01 e9 f3 bb b5 3d fe bd
       -0.11081473 0.020717584 -0.0074435477 -0.124141134
000150 01 40 9e bd e4 e3 d7 3d ec c1 47 3d 87 49 26 bd
       -0.077270515 0.105415136 0.048768923 -0.040597465
000160 27 73 4e 3d a9 5e a2 3c d3 b3 a1 bd c5 fd ae bd
       0.050402787 0.019820528 -0.07895627 -0.085444964
000170 fc 89 54 3b 64 84 78 bd 4d 1a 53 3d ac fa e5 3d
       0.0032430878 -0.060673133 0.051538754 0.112294525
000180 93 4a 24 3d e2 e6 07 be d7 49 bc bd 6a 0d 05 bd
       0.040110182 -0.13271669 -0.09193771 -0.032483496
000190 ed de a6 3b d2 df 11 3d 1f e9 74 bd 07 9e c4 bc
       0.005092493 0.035613842 -0.059792634 -0.024001135
0001a0 e0 02 a8 bb 27 f9 1e bd ac ed c8 3d 7c ed 9d 3d
       -0.005127296 -0.03881183 0.09810957 0.07711312
0001b0 71 a2 da 3d c2 06 e3 bc b6 e9 b5 3d 45 87 b2 3c
       0.106755145 -0.027713183 0.088824674 0.021793017
0001c0 99 70 c2 bd 60 af b9 3c 29 5b e5 bc bc 46 c9 bd
       -0.094941325 0.022666633 -0.02799757 -0.09827945
0001d0 ae 8e d5 bc 54 f6 07 bc 5b eb be 3d ce d2 57 bc
       -0.026069012 -0.008298475 0.09322234 -0.013172818
0001e0 44 69 cf 3d f6 5c be bc 7f 64 46 bd 2d 9d b7 3c
       0.101275 -0.023237687 -0.048435684 0.022413814
0001f0 8b ad b6 3d 7e 79 cf bd 5c dc e3 bc 20 0d 95 bd
       0.089198194 -0.10130595 -0.027815036 -0.07277894
000200 e7 c8 8b bd 8c 41 c3 3d 2b e3 bc 3d 1c 62 a2 bd
       -0.068254285 0.095339864 0.09223016 -0.07928869
000210 dd 53 68 bd 77 a8 e9 3c ce 05 b8 3c 53 a6 22 bc
       -0.056720603 0.028522713 0.022463705 -0.00992735
000220 d9 3a e5 3d 08 42 51 bd 0a 8e 2b 3c 52 95 24 bd
       0.11192865 -0.051088363 0.0104708765 -0.040181465
000230 42 4b 42 3d 55 41 aa bd 84 09 50 bd a6 7d d8 3d
       0.047435053 -0.08313242 -0.050790325 0.105708405
000240 3f 04 36 bc 4b a9 a1 bd 4d e2 8d bd e9 4b 00 be
       -0.011109411 -0.07893618 -0.06927929 -0.12528957
000250 63 41 7f bd 3c 9d c6 3d a1 a1 aa 3d aa 76 9c 3d
       -0.062318217 0.09697959 0.083316095 0.07639821
000260 32 52 ac bd d0 4a b9 3c 57 5c 9f 3d b2 ee 94 bd
       -0.08414115 0.022618681 0.07781284 -0.0727209
000270 5b 63 88 3d 92 4a d1 bd 8a 7c 50 3d 2d 11 52 3d
       0.066595756 -0.10219301 0.05090002 0.05128591
000280 db 01 8a 3d 60 66 65 bb fe 57 66 bc da 0a 86 bd
       0.06738635 -0.0035003647 -0.014059065 -0.065450385
000290 d0 2a a6 bd 39 c2 dd bd 84 3f 5f 3d 33 42 d2 3d
       -0.081136346 -0.10828061 0.054503933 0.10266533
0002a0 3d e1 b9 3d c7 fc c6 bd 48 b1 c6 3d 0b 80 25 3d
       0.09076164 -0.09716182 0.097017825 0.040405314
0002b0 a7 a9 7b 3d 4f 05 fb 3c c0 53 24 bd 11 6f 93 3d
       0.06144109 0.03064218 -0.040118933 0.071989186
0002c0 79 db cb bd 13 68 d2 bd 81 90 1b 3c 83 27 a6 3d
       -0.099539705 -0.10273757 0.009494902 0.08113005
0002d0 22 b9 72 bd 67 87 01 be 1a 52 55 bd 53 a8 c5 3d
       -0.059258588 -0.12649308 -0.05208025 0.09651246
0002e0 68 26 bb bd 4c 5d ef bd 85 2a 20 3d ca a7 e5 bd
       -0.09138185 -0.11687717 0.03910305 -0.11213644
0002f0 17 28 1d bd a9 33 11 3e a3 da d6 3d 33 ac db bc
       -0.03836831 0.14179863 0.104909204 -0.02681551
000300 f1 c9 bc 3c 7d c5 5e bc ae 94 9f 3d af cd 05 be
       0.023045512 -0.01359689 0.0779203 -0.13066743
000310 1f e6 c1 3d f2 f9 bc bd f5 5e e3 3d 1e 0d 42 3c
       0.0946772 -0.09227361 0.11102096 0.011843948
000320 7b b4 3b 3d 58 60 7d bd 9d 2b ec 3d a8 29 31 3c
       0.045826416 -0.06185946 0.11531756 0.010813154
000330 e6 b2 bb bd 00 1a f3 bc bc 5a 63 3d 7a 76 d2 bd
       -0.091649815 -0.029675484 0.055506453 -0.10276504
000340 98 83 ee 3c b5 f2 ce 3d 00 a3 a8 3c fc a6 e6 3c
       0.029115483 0.101048864 0.020585537 0.028155796
000350 54 ae bc 3d b8 45 15 bc 7c 9c 88 3c bc 43 42 bd
       0.09212938 -0.0091108605 0.01667618 -0.047427878
000360 81 c1 92 bd 33 44 e5 3b 6e db 8b 3d 98 23 e3 bd
       -0.07165814 0.0069966554 0.06828962 -0.11090773
000370 88 a5 b8 3d e4 2e aa 3d 9f 50 5c 3d 30 ae d3 bc
       0.090159476 0.08309725 0.053787824 -0.025839895
000380 0d 8e b9 3a 4f 63 b0 3c 39 e7 31 3d 96 a3 a9 3d
       0.0014156714 0.021531729 0.0434334 0.08283155
000390 71 03 03 bd 5c ce 72 3d a0 ac 77 bd f6 59 a6 bd
       -0.031985704 0.05927883 -0.060467362 -0.081226274
0003a0 ee 13 a9 3c 08 ae 10 bd 5a ac 63 3b cf 8b a4 bd
       0.020639386 -0.03532222 0.003474018 -0.08034479
0003b0 61 d5 8d 3d 4b d8 46 3d 84 d9 22 bd 55 07 a5 3d
       0.069254644 0.048546117 -0.03975822 0.08058039
0003c0 0a 69 32 bd b4 12 b2 3d fd 04 c1 bd bf ee 8f 3d
       -0.043557204 0.086949736 -0.094247796 0.07027959
0003d0 d7 9f 8d bd 0a 0f 48 3d 34 b2 bb 3d 87 c5 fa bd
       -0.06915253 0.048842467 0.09164849 -0.122447066
0003e0 01 d4 1c bd 7e 10 c6 3d 51 de 03 3c 9e 43 b9 3d
       -0.03828812 0.096711144 0.00804861 0.090461
0003f0 f3 87 5b 3d 2b 21 37 3d 8b 22 0d 3d 22 32 e1 bd
       0.05359645 0.044709366 0.03445677 -0.1099589

LSTM.weight_hh_l0 f4 [256, 64]
000000 f3 15 6d 3d 2b 1c ad 3d 7f e9 37 3d 02 d0 96 3d
       0.05788226 0.08452638 0.044900414 0.07363893
000010 13 ba 30 bc 8a 25 f1 bd ad e5 6f bd ab 36 16 3b
       -0.010786551 -0.11774738 -0.058568645 0.0022920768
000020 91 6e fb 3b 03 6e f9 3c f1 7b 14 bd b7 39 c9 3d
       0.0076730927 0.030447965 -0.036251012 0.09825461
000030 d3 d0 11 bd de 1d 7f bd 0e b2 16 bd 83 26 6f 3d
       -0.03559954 -0.062284343 -0.0367909 0.058386337
000040 48 24 d0 bd 80 37 d9 3d f0 c1 49 3d 31 a9 01 be
       -0.1016317 0.10606289 0.04925722 -0.12662198
000050 5b 5c e3 3d 98 41 f2 bc 73 af f1 3c 7e ca 9d 3d
       0.111016 -0.029572293 0.029502606 0.07704638
000060 48 21 b6 bd 3e 3f df bd 91 80 34 bd fc 07 9f bc
       -0.08893067 -0.10900734 -0.044067923 -0.019412987
000070 86 fd 37 bd 68 93 78 bd c1 60 de bd b7 a1 b0 3d
       -0.044919513 -0.060687453 -0.10858298 0.08624595
000080 22 45 be bd 27 5f 9d bc de c0 ac 3d be 98 d8 3d
       -0.0929053 -0.019210411 0.08435224 0.10576008
000090 a6 34 1d bd 9f 3c 29 3d 30 4c 50 bd 12 2b 3b bc
       -0.038380288 0.04131758 -0.050853908 -0.011423843
0000a0 1d 39 bb ba ec 89 be 3d aa c3 a6 3b 44 9b 43 3d
       -0.0014283989 0.0930365 0.005089243 0.047755495
0000b0 43 de 8d bd 23 f0 ed 3d 60 5c b9 bd 9c 03 af bc
       -0.06927159 0.11618068 -0.09050822 -0.021364026
0000c0 3d f9 bb 3c 1b 8f c1 bb d3 99 b9 3d 04 28 f2 ba
       0.022945995 -0.005906952 0.09062543 -0.001847506
0000d0 55 c4 f6 3d 2a 0c 3a bb 1c 51 84 3d 73 81 ff 3c
       0.12049166 -0.0028388598 0.06460783 0.031189656
0000e0 0f 29 a2 3c e7 3a e6 3d 48 5e 99 bd 02 af c5 bd
       0.019794969 0.112417035 -0.07488686 -0.09652521
0000f0 4c 7a d7 3d bd 97 c4 bd 0f 36 a9 bd 2b 9d b3 3d
       0.10521373 -0.09599254 -0.08262264 0.08770212
000100 34 d5 17 bc d7 f7 ce bd f3 65 cb bd 3c 9b 84 bd
       -0.00926714 -0.101058654 -0.09931555 -0.06474921
000110 fd 05 bf bd b4 3e c5 bd 7f 2c 9e 3d a5 fe a6 3d
       -0.09327314 -0.096311 0.07723331 0.08154038
000120 83 78 bc bb cb ba 98 bd 12 f8 c1 bd fe a2 cd bc
       -0.005751671 -0.07457503 -0.09471144 -0.025102135
000130 89 5b 13 be 1e 39 2f 3b b1 1f 82 bc e0 6b 63 3d
       -0.14390387 0.0026736925 -0.015884252 0.0555228
000140 57 6d 96 bd 83 f6 4b bc 08 63 34 bd 68 98 4b 3d
       -0.07345074 -0.01244891 -0.044039756 0.049705893
000150 45 94 d2 3d 62 4f 91 bd da 79 ae bc 9c 64 8a bd
       0.102821864 -0.07095219 -0.021298338 -0.06757471
000160 0f 69 55 bd 24 07 ee 3d c8 a6 d4 bd e0 5f a3 bd
       -0.052102145 0.11622456 -0.103833735 -0.07977271
000170 d6 41 13 bc 40 51 84 bd a4 86 df bc 91 61 2a 3d
       -0.0089878645 -0.0646081 -0.027285881 0.041596953
000180 71 15 27 3d 11 88 0b 3e e9 aa d2 3d d0 ec 63 bd
       0.040791932 0.13626124 0.10286505 -0.055645764
000190 b5 45 93 bd 36 d6 d6 3d 81 14 03 be 29 81 8a bc
       -0.0719103 0.10490076 -0.1280079 -0.016907291
0001a0 dd d8 8c bc f3 a8 1a bd d7 ce 2e 3d 8c 5a c8 3d
       -0.017193252 -0.03775878 0.042677727 0.097828954
0001b0 13 f2 aa 3d 13 04 d0 bc f0 a7 e3 3d b2 c2 bf bc
       0.08346953 -0.025392568 0.11116016 -0.023408268
0001c0 3b 53 69 bd 21 4a db ba 86 0d 66 bc 2e 66 78 bc
       -0.05696414 -0.0016730466 -0.01404131 -0.01516108
0001d0 a0 7c e6 3d 4e 9d 19 bd 76 23 95 bd 7d 59 f1 3d
       0.11254239 -0.037503533 -0.07282154 0.11784647
0001e0 4f 45 03 bd e3 83 91 bd 14 c6 02 3c 64 e6 8b 3d
       -0.03204852 -0.071052335 0.007981796 0.06831053
0001f0 bb d6 8e bd 48 6f ce bc fd 5e 34 3b 84 12 8c 3d
       -0.0697455 -0.025199547 0.0027522438 0.06839469
000200 b4 40 6f bd 92 fd af bd ef 7e 3d 3d aa e2 a3 3d
       -0.058411315 -0.085932866 0.04626363 0.08002217
000210 21 06 f6 bc 33 0f 1f bd 6e b5 b2 bd 4c fd 1c 3c
       -0.03003222 -0.038832854 -0.08726011 0.009581875
000220 a8 ee 8c 3b fb 62 dd 3d 3b da 2d bc bd c5 8b bd
       0.004300911 0.10809895 -0.010611112 -0.06824825
000230 29 25 a1 bd 49 f1 8b bd 06 c9 e2 bc 08 03 df 3d
       -0.07868416 -0.06833131 -0.027683746 0.1088925
000240 23 9d 17 3b c0 1b 70 bd 79 0a c6 3d 13 7a e4 3c
       0.0023134432 -0.058620214 0.09669966 0.02789024
000250 b8 39 54 3d f3 03 85 bd 6f 24 00 3e a8 f3 d8 bd
       0.051812857 -0.06494894 0.12513898 -0.10593349
000260 76 01 92 3d 60 34 ba bd 94 04 42 bd 56 cb 9b 3d
       0.07129185 -0.09092021 -0.047367647 0.076071426
000270 1c f6 72 3d 8d 60 69 bc 30 cb b6 3d 5a 2e 35 bd
       0.05931674 -0.014244211 0.08925474 -0.044233657
000280 7e 24 50 3c 02 27 b5 3b 9c 67 ae 3d 85 3f 8a bd
       0.012704013 0.0055283317 0.08515856 -0.06750397
000290 eb 2a 0c bd 5f 34 e2 bc 5d 98 27 3d 2d 1b 6b bd
       -0.034220617 -0.027612863 0.04091679 -0.057398964
0002a0 26 86 32 bd 6b 4a e6 bc b6 1b c1 bc 66 45 d7 34
       -0.043584965 -0.028111657 -0.023572784 4.0097365e-07
0002b0 ba 83 ac 3c bb de 65 bc 6f 86 64 bd 37 06 c4 bd
       0.021058906 -0.014030154 -0.05579227 -0.09571498
0002c0 ea 8b bd bd 3f 53 1b 3c 3e 5b fa 3d 1f c6 51 3d
       -0.09255202 0.009480297 0.12224434 0.051214334
0002d0 e0 47 03 3d c2 36 07 3d f2 ee 5a 3c fc a2 19 3d
       0.032050967 0.033011205 0.013362633 0.03750895
0002e0 54 97 f9 bb 08 4e 8d 3d dd 3d 08 be a5 3e 4a 3d
       -0.0076169167 0.06899649 -0.13304849 0.04937615
0002f0 da b7 a1 3d 58 f4 9c 3d a0 57 5f 3d c1 3d fd bc
       0.07896395 0.07663792 0.054526925 -0.030913236
000300 f6 79 96 bd 90 9f bf 3d c3 47 f5 3c 66 31 8d bd
       -0.07347481 0.09356606 0.029941445 -0.06894188
000310 0f d0 79 3d 40 27 86 bd 9a c8 a1 3d 07 4a c3 3d
       0.060989436 -0.06550455 0.0789959 0.09535604
000320 fa 6f 0b 3e f4 20 87 3d 60 e2 cf 3d 04 ef f7 3d
       0.13616934 0.06598082 0.101505995 0.121061355
000330 58 50 0f bd 2d 8b b4 3c 48 1d dc bc 62 54 bf bd
       -0.03498873 0.02203902 -0.026869431 -0.093422666
000340 41 0c 70 ba 66 be 53 bd fe 2e b8 3d 79 b9 b3 3d
       -0.00091570994 -0.05169525 0.08993338 0.087756105
000350 c8 94 14 bd 14 fb 07 3e 63 91 4b bb ab 90 34 bd
       -0.0362747 0.13279372 -0.0031062 -0.04408328
000360 01 cd 81 bd 63 53 23 bd 5e bc c7 3d 5a 72 ab 3b
       -0.063379295 -0.039874446 0.09752725 0.0052321376
000370 c4 52 36 3d 79 72 d9 3b 71 3d 41 bc a8 b8 8b bd
       0.044512525 0.0066359607 -0.011794434 -0.0682233
000380 8d b7 55 3d 1c b9 a5 bd 58 56 60 bd fd 2f 09 be
       0.052177 -0.080919474 -0.054769844 -0.13397212
000390 e1 27 96 3d fa 6c ad bd 45 d9 87 bd e2 6a 15 bd
       0.07331825 -0.08468051 -0.06633238 -0.036478885
0003a0 7d c7 f2 3d 5a 89 44 3d e3 c6 d2 3c b4 a7 17 3d
       0.118544556 0.04798255 0.025729602 0.03702517
0003b0 4a b0 ed 3d 7d be 7e bd 8d 25 f2 3d b2 a5 f1 3b
       0.1160589 -0.062193383 0.118235685 0.0073744887
0003c0 35 68 b3 bd c7 26 62 bd 43 99 ee bc f2 5c 95 3d
       -0.0876011 -0.055212762 -0.029125815 0.072931185
0003d0 8a e5 40 bd fd 38 b8 bd d5 6f 48 3d 22 25 af 3d
       -0.047093906 -0.08995245 0.048934776 0.085520044
0003e0 97 18 5c bd 99 53 4a 3d 8f 72 cf 3d 26 76 88 3d
       -0.05373439 0.04939613 0.10129272 0.0666316
0003f0 ab b1 c6 bd e8 50 90 bd fe 9f d8 3d c6 37 a7 3d
       -0.09701856 -0.07046682 0.10577391 0.08164935

LSTM.bias_ih_l0 f4 [256]
000000 3e 3e ed 3d e3 b5 c2 bd 25 d7 03 3d e7 52 af 3d
       0.115841374 -0.095073484 0.0321876 0.08560734
000010 08 90 98 bd 09 d6 be bd c2 90 0a 3d f2 f8 9c bd
       -0.07449347 -0.09318168 0.033829458 -0.0766467
000020 bf 0a 98 bd fb 7c 84 39 53 04 83 bd eb 62 88 3d
       -0.07423925 0.0002527012 -0.06397309 0.06659492
000030 83 40 9c 3d 72 e9 f1 bc 56 0e 15 ba 21 a2 88 3d
       0.07629492 -0.02953026 -0.0005686035 0.06671549
000040 ad 6a aa bd 31 86 05 3e 6d 5b a6 bd 9f ee a2 bd
       -0.08321128 0.13039471 -0.08122907 -0.079556696
000050 01 de a4 bc c1 85 d8 ba 68 07 55 3d ac 95 4a bd
       -0.020125391 -0.0016519354 0.052009016 -0.049459144
000060 36 c8 ca bd 12 13 45 bd 74 87 f2 3d 2f 95 9d bd
       -0.099014685 -0.04811389 0.11842242 -0.0769447
000070 bd 27 92 bd 7a eb 3c bd c2 97 5c bd 13 d9 bd bd
       -0.07136486 -0.046123005 -0.053855665 -0.09269919
000080 2b 78 ba bd d6 7e 9f bd 6f 1e a6 3d d3 e6 29 bb
       -0.091049515 -0.07787864 0.081112735 -0.0025924935
000090 a5 d0 03 3e 27 9e fd 3c 58 14 01 3e 6b 96 b1 bd
       0.1287256 0.030959202 0.12605417 -0.08671268
0000a0 6d 05 4c 3c 5a 2e ab 3d 1d 91 83 3d 21 1e ef bc
       0.0124524655 0.0835845 0.064241625 -0.029189171
0000b0 60 03 b1 bd a6 9c 85 3c cd 0e 19 3b f1 25 82 bd
       -0.08643222 0.016310047 0.002335477 -0.06354893
0000c0 9a 14 9a 3d e3 4f c5 bd 43 5b 8b 3c 45 39 a4 bd
       0.07523461 -0.09634378 0.01701129 -0.08018736
0000d0 94 4e d2 b9 31 16 87 bc 49 bd d8 3d eb 6e 03 3d
       -0.00040112867 -0.016490074 0.10582978 0.0320882
0000e0 d4 40 91 bd 3b b4 b2 bd 69 99 fc bb 75 5e d3 3d
       -0.07092443 -0.087257825 -0.0077087176 0.103207506
0000f0 d5 fb 02 3e 4a 17 df 3d c1 3d 7a 3d 66 5b b1 3d
       0.12791379 0.10893114 0.06109405 0.08660011
000100 84 67 71 bd 14 71 bc 3d a0 b1 82 3d 1c e3 ed bd
       -0.05893661 0.092012554 0.063815355 -0.11615583
000110 6e 64 f7 bd d9 cd e7 3d 85 84 48 3b 75 bb aa 3d
       -0.12079702 0.11318559 0.0030596566 0.08336536
000120 32 ee 8e 3b 7d 6c f4 bc fa cc 69 bd 0a 24 e4 bd
       0.004361891 -0.029836887 -0.057080247 -0.111396864
000130 33 68 02 bd a2 af 72 bd 56 c6 e1 3d b1 6b a8 bb
       -0.031837653 -0.059249528 0.11024158 -0.005139791
000140 55 fe 04 3e 11 51 9e 3c 2a de e7 bd 27 4e a0 3d
       0.12987645 0.019325765 -0.11321671 0.078274064
000150 d9 7a e0 bd 19 18 b1 bc ac 9b 95 bd 16 d3 77 bd
       -0.10960931 -0.021617936 -0.07305083 -0.06050404
000160 37 c7 cd bb fa 3b 02 3e 79 88 bf bc 78 10 09 bd
       -0.006279852 0.12718192 -0.023380505 -0.03346297
000170 7c ef 62 3d 1b 53 50 3d d3 07 b4 bd 85 25 95 3b
       0.05540417 0.050860506 -0.08790555 0.004551592
000180 e4 3b 2f 3c 25 83 ab bc 07 71 b2 3d 7b e5 98 bd
       0.010695431 -0.020936558 0.087129645 -0.07465645
000190 7f c9 d6 bd 0a 66 fe 3d f3 7e 51 3d c6 d9 7c bd
       -0.10487651 0.12421806 0.05114646 -0.061731122
0001a0 94 19 a9 3c 5d bb d6 3d 1f 90 55 bd be f6 a6 b7
       0.02064208 0.104849555 -0.052139398 -1.990364e-05
0001b0 b1 a5 39 3d 4a 22 b1 bd e3 06 b6 bc e1 13 ae 3d
       0.04532403 -0.08649118 -0.02222008 0.08499885
0001c0 82 68 7f 3c f6 18 cb bd a3 67 ff bc 32 39 e6 bb
       0.015588881 -0.0991687 -0.031177348 -0.007025861
0001d0 b0 43 3f bd 23 a1 99 3d 12 d0 b1 3c b9 29 e6 3d
       -0.04669541 0.075014375 0.021705661 0.11238427
0001e0 f3 32 68 bd a7 0b c1 3b ba 98 b2 bb 9b f8 f0 3d
       -0.056689214 0.0058912816 -0.0054503353 0.11766168
0001f0 36 48 87 3d d9 95 4c 3d b5 f9 98 3c 74 c7 ad bd
       0.0660557 0.049947593 0.018673757 -0.08485308
000200 c1 b4 29 bd cf f1 fb 3c 85 b4 54 3d 99 36 8b 3d
       -0.041432146 0.030754952 0.05192997 0.06797523
000210 0b 55 d5 3c 69 78 7b bd 2d a9 8b 3c cc e2 cf 3c
       0.026041528 -0.06139413 0.017048443 0.0253767
000220 18 25 69 bd 69 03 88 bd 65 2d ef 3d 82 a6 3d 3d
       -0.05692014 -0.066412754 0.1167858 0.046301372
000230 4a cb d8 3c 9a f0 e3 3d ba 92 36 3c 76 71 76 bd
       0.026464123 0.111298755 0.011143381 -0.0601668
000240 e0 d7 d5 bd 7d fb ec 3c e3 e0 1e 3d 15 b7 cb 3c
       -0.104415655 0.028928513 0.038788687 0.024867574
000250 d6 45 aa 3d a4 97 ce 3d d6 20 88 bd 47 1e f5 bc
       0.083141014 0.10087517 -0.06646888 -0.029921664
000260 a9 6a 52 bc fb 84 b4 3c 2c 30 b6 bd 44 42 d6 bd
       -0.012842813 0.022036066 -0.08895907 -0.10461858
000270 43 8b 8d 3d 6b e7 7c 3d fc 2d 91 bd 2e 43 c3 3d
       0.06911328 0.061744135 -0.07088849 0.09534298
000280 4d d7 b5 bd a2 40 3a 3d af 3b 9d ba c8 23 71 bd
       -0.08878956 0.045471795 -0.0011995937 -0.058872014
000290 29 57 4c 3d 10 06 42 3d 66 d8 e7 3d 4e ce bd bd
       0.04988781 0.047369063 0.113205716 -0.09267865
0002a0 3d 1a dd 3d b0 f9 d4 3d 1a 25 85 bc a6 ed f1 3d
       0.1079602 0.103991866 -0.016253043 0.11812906
0002b0 cf af 90 bd 57 a3 78 3d b7 84 7c bc 31 ab 7e bc
       -0.07064783 0.060702648 -0.015412501 -0.015543745
0002c0 e6 6c 39 bd 77 40 b9 bd 72 af d7 3d b5 c7 2d bd
       -0.04526987 -0.09045499 0.105315104 -0.042426784
0002d0 a9 ac bd 3d bb a4 e0 bd 3c df f2 3d 3d 18 19 bd
       0.09261448 -0.1096892 0.11858985 -0.03737663
0002e0 eb d3 59 bd 55 03 44 bd 65 44 a1 bd ed fd d9 3d
       -0.053180616 -0.04785474 -0.07874373 0.106441356
0002f0 92 87 4b 3d 06 c3 c7 3d ea fc a6 3d 47 ee 8d bd
       0.049689837 0.09753995 0.08153708 -0.069302134
000300 48 28 ad bd 39 7e c8 3d c9 a0 ee bd 0f 7b e9 bc
       -0.08454949 0.097897 -0.11651761 -0.028501062
000310 5f 96 73 3d 66 3f 0c 3d 9e 2b be 3c e0 0c dc 3d
       0.059469577 0.03424015 0.023214158 0.10744643
000320 ca 22 c1 bb 03 55 af bd de e6 8d bd 08 04 a4 3d
       -0.0058940398 -0.085611366 -0.069288 0.080085814
000330 6c 3d 1b bb f3 c4 d1 3d 73 df d9 3c a6 66 58 bd
       -0.0023687733 0.10242643 0.026595807 -0.05283227
000340 49 14 a4 3c c6 52 8c bd 97 86 c4 3b 25 d8 ca 3c
       0.020029204 -0.06851725 0.0059974897 0.024761269
000350 eb 6c 3c bc 8c cf 55 3d 81 d2 d5 3d d9 43 2d 3d
       -0.011500577 0.052199885 0.10440541 0.042301033
000360 d2 f1 d4 bc 9d 73 cc bc 80 3b a2 3b c0 10 56 bd
       -0.025994215 -0.024957472 0.0049509406 -0.052262068
000370 78 9c 09 3d 4e 24 93 3d 2f 5e 0a bd 34 46 f1 bb
       0.033596486 0.07184659 -0.033781227 -0.007363105
000380 38 6d 56 3d a0 50 b4 3d c9 0a d5 3d dd 0e ce 3b
       0.052350253 0.088044405 0.10402448 0.006288393
000390 9e d4 79 3d fb f1 c4 bd 26 f4 1b 3d a4 29 b9 bd
       0.060993783 -0.096164666 0.038074635 -0.090411454
0003a0 ab 89 09 bd 1f 13 34 3d 34 23 d6 bd 0d e3 aa bc
       -0.033578556 0.043963548 -0.10455933 -0.02086022
0003b0 1b 6e 9b bd d3 9f eb 3d a2 a3 6d bd 53 25 8c 3d
       -0.0758936 0.115050934 -0.05801738 0.068430565
0003c0 ea 7a 12 3d 8c 95 31 bd ac da 2a 3d f6 83 ec 3d
       0.03576175 -0.04335551 0.041712448 0.11548607
0003d0 d7 9d b8 3d 2f bd 0b bd f3 6b c7 bd 36 e1 21 bd
       0.090144806 -0.034115966 -0.097373866 -0.03952142
0003e0 fc db 31 ba 79 75 8f 3d 58 b4 44 bd 79 c3 d7 3d
       -0.00067847944 0.07004828 -0.04802355 0.1053533
0003f0 23 91 15 3d bf 3b 89 bd c4 13 f1 bd e6 7b c7 3c
       0.036515366 -0.06700849 -0.11771348 0.024351072

LSTM.bias_hh_l0 f4 [256]
000000 03 92 79 3d 9e 93 18 bd 74 2b 67 3d 1f 15 d2 bd
       0.060930263 -0.037250154 0.056437925 -0.10257935
000010 1d 7f 26 3c 0f 9d e1 3d 0a 78 fa 3d 5c 52 13 bd
       0.010162142 0.11016285 0.12229927 -0.035967216
000020 b3 b7 e4 bd 18 74 0b 3e 86 cf d4 3c 8a 78 ca bc
       -0.1116785 0.13618505 0.025977861 -0.02471568
000030 5f 36 56 bd db df 47 bd ac 7d 8a bc 5e 5b 83 3d
       -0.052297946 -0.04879747 -0.016905628 0.06413911
000040 61 18 6a bd f6 b8 2c 3c ef fa 9a bd 9c dc 7d bd
       -0.057152156 0.010542145 -0.07567393 -0.061977968
000050 56 cc e1 3d 45 3b 4c 3d 1c b9 c4 bc c4 c2 49 bd
       0.11025302 0.04986121 -0.024014048 -0.04925801
000060 32 c4 fd 3d 1c 18 cc bb bc 46 04 3e e1 7e d6 bd
       0.12390937 -0.00622846 0.12917608 -0.10473419
000070 d1 ea eb bd 5a 7c 57 bd 9f e2 fa bd 8f 74 d2 3d
       -0.11519397 -0.052608825 -0.12250256 0.10276138
000080 8b 33 2a bd 1a c3 b8 bd 7b 35 88 3d 5c 55 cd 3d
       -0.04155306 -0.09021588 0.066508256 0.10026047
000090 c2 5c 56 bd 78 29 ca bd f3 25 f9 3d 48 c4 4c 3d
       -0.052334554 -0.09871191 0.12165441 0.049991876
0000a0 2c bc 09 bd 9a ba bf 3d 01 c4 c1 bd 38 ca 60 bc
       -0.03362672 0.09361763 -0.09461213 -0.013720088
0000b0 9e c2 49 3d cd e4 da 3d 5c 65 eb 3d 73 09 b8 3d
       0.049257867 0.106881715 0.11493942 0.08986177
0000c0 90 a6 e7 bc ab f4 d1 bd 35 e6 bb bd 8b 22 01 3e
       -0.028277665 -0.10251745 -0.09174768 0.12610833
0000d0 4c 3f d6 bd f4 99 9b 3c dd 87 8f bd dc dd 39 3b
       -0.10461292 0.018994309 -0.07008336 0.0028360998
0000e0 d3 86 86 3d b8 c5 87 3d 1b d7 03 3e f6 25 05 3e
       0.065686844 0.06629509 0.12875025 0.13002762
0000f0 f8 67 50 3d cd 4c 38 bd 43 c1 15 bd be f0 84 3c
       0.050880402 -0.044995118 -0.03656126 0.016228076
000100 37 a3 8f 3d 04 7e bd bd 59 7f f8 3c 23 af 86 3d
       0.07013553 -0.09252551 0.030334162 0.065763734
000110 e5 6d 6b 3c f8 19 0d bd 2e c6 a9 bc 9b 62 87 bd
       0.014369463 -0.034448594 -0.020724382 -0.066106044
000120 de 3f 32 bd 72 63 c8 3d 13 b9 d2 3d 39 45 ac bb
       -0.04351794 0.09784593 0.10289206 -0.0052572754
000130 ed 74 7e 3d 0c 37 e3 bd d1 54 2d bd 57 60 a1 3d
       0.062123228 -0.11094484 -0.042317215 0.078797035
000140 a6 f5 53 3c 8b dd 06 3e 7f 42 c2 bb 7a 71 de bc
       0.012936985 0.1317045 -0.005928337 -0.02715372
000150 b5 34 be bd 53 63 37 3d 16 ba fb bc 11 21 5e 3d
       -0.09287397 0.044772457 -0.030728381 0.054230753
000160 6b d7 f8 3d 72 50 b6 bd dd 25 7d bd 02 b7 ab bd
       0.12150463 -0.089020625 -0.061803687 -0.08384515
000170 20 fc 56 bd 54 96 cb 3d 2a 0e d8 3c cd 6f 2a 3d
       -0.05248654 0.09940782 0.026373941 0.041610528
000180 8a 6f b3 bd c6 91 1d bd c0 c0 5c 3d a0 74 0b bd
       -0.08761509 -0.0384691 0.05389476 -0.03404677
000190 2b f0 74 3c 6c fc 8b bd a8 bd ae 3d 72 f3 5d bd
       0.014949839 -0.06835255 0.08532268 -0.054187246
0001a0 41 54 c7 3d a4 ea 16 bc 93 7e d1 3c 86 07 e0 3d
       0.09732867 -0.009211216 0.02557305 0.10938935
0001b0 3d 03 c4 bd 82 a2 1d bd 33 a3 d9 3d bd 01 04 3c
       -0.0957093 -0.038485058 0.10626831 0.008057055
0001c0 47 88 f2 3d 0e 81 ef 3d 09 a4 ab bd a6 27 4f 3d
       0.11842399 0.11694537 -0.083808966 0.05057492
0001d0 e0 f5 6e 3d 3b ca 2e bd 8d 34 18 3d 37 e3 fc 3d
       0.058339953 -0.04267333 0.03715949 0.12348025
0001e0 b0 50 65 3d c5 a9 e0 3d 65 cc db 3d 9c bc 28 bd
       0.055985153 0.10969881 0.107323445 -0.041195497
0001f0 25 fd 84 3d a8 4d 7a 3c 47 64 5c 3d 5d 09 2c bd
       0.06493596 0.015277304 0.05380657 -0.042001117
000200 97 62 a6 bd c5 1a d7 bc e9 85 32 3b 65 41 b3 bd
       -0.08124273 -0.026257882 0.0027240461 -0.087527074
000210 c8 ff 9b 3d fd 42 38 3d d7 fb 2a 3d ea 7c 65 3d
       0.07617146 0.04498576 0.04174408 0.05602733
000220 b2 45 cd 3d 51 16 ef 3b 35 67 9e bd e7 b8 97 3d
       0.10023059 0.0072963615 -0.07734529 0.07408314
000230 36 2e a3 bc 88 b6 c2 3d 87 4c e7 bd 32 77 65 bd
       -0.019919496 0.09507471 -0.11293893 -0.056021877
000240 f9 c7 c4 bb 64 47 55 3d 0a c3 fb bd 9b 01 f0 3d
       -0.006005284 0.052070037 -0.1229306 0.11719056
000250 76 78 e7 bd a6 9d 46 3d 81 28 e3 3c 3c d2 58 bd
       -0.11302273 0.04849019 0.027729275 -0.05293487
000260 9b 42 e9 bd 77 ed 8e 3d 4e b1 f4 3d 32 69 de 3d
       -0.11389657 0.069788866 0.11947881 0.10859908
000270 04 c7 74 bd d3 d8 e8 3d 2a 75 cf 3d a2 17 b3 bd
       -0.05976011 0.11369481 0.10129769 -0.08744742
000280 ec 21 26 3c 5e 96 05 bd 08 10 f2 3c 07 cc 69 3d
       0.010139924 -0.032614104 0.02954866 0.05707934
000290 c5 35 48 bb 3e d4 f1 ba b8 15 dd 3d 5d a2 02 bb
       -0.0030549627 -0.0018450094 0.10795158 -0.0019933202
0002a0 57 c5 63 3d 9a 71 f6 bd f3 c6 e0 3d 2f 4d 9a bc
       0.05560812 -0.120333865 0.109754466 -0.018835632
0002b0 71 a0 ae 3b 98 85 ee 3d 87 47 08 bd 1c ec 8f 3c
       0.0053291847 0.11646575 -0.03327134 0.01756864
0002c0 70 ce 7b 3c 05 79 22 ba f4 fc e4 bb 1c 1d a8 3d
       0.015369043 -0.0006197843 -0.006988162 0.08208677
0002d0 dd 2b dd 3d 81 6f 07 bd 6c 9b b5 3d 7a f0 e0 3d
       0.10799382 -0.033065323 0.08867535 0.10983367
0002e0 72 c6 60 3d 78 27 9f 3d 07 2c 48 bd 73 94 f3 bd
       0.054876752 0.077712 -0.048870113 -0.11893549
0002f0 51 0c 54 bc a8 c1 eb bd ee fa 3b 3d a1 67 14 bd
       -0.01294239 -0.115115464 0.045893602 -0.03623164
000300 a9 95 67 bd a6 d8 67 3d 2c 83 0d 3d a4 35 03 3e
       -0.05653921 0.056603096 0.034548923 0.12813431
000310 b6 0a b9 3d 1a 38 d1 3d 6b 59 01 3e 28 e4 fc 3d
       0.09035246 0.10215779 0.12631766 0.12348205
000320 f7 7a 95 bc fb 2c ad 3d aa 15 8f bd 1e 16 18 3c
       -0.01824711 0.08455845 -0.06986554 0.009282617
000330 97 84 e8 3d f8 b2 4d bd d0 b7 63 3c d0 af a7 3d
       0.113534145 -0.050219506 0.013898805 0.081878304
000340 f9 c8 dc 3d f9 dd 97 3c 49 a1 c1 3d a0 14 7f bc
       0.1078052 0.018538462 0.09454591 -0.015568882
000350 11 5c d9 bd 98 cd e4 bd 24 5d 13 3d 1d 24 7d 3d
       -0.106132634 -0.111720264 0.035977498 0.06180202
000360 1b 7f 06 bc 76 f8 9e 3d 6d 87 81 3d 50 79 49 3d
       -0.008209015 0.07762234 0.063246585 0.04918796
000370 05 05 ab bd 54 c5 d1 bd 76 e4 b8 bd a5 f1 fa 3d
       -0.08350567 -0.102427155 -0.090279505 0.12253121
000380 cc 17 c2 bd fe db cc 3d d7 ac e8 3d 4c bd d0 3c
       -0.09477195 0.10002898 0.113610916 0.025480889
000390 a8 40 73 bd 3e f4 75 3b d6 23 97 bd 4a 35 8a 3d
       -0.059387833 0.0037529613 -0.07379882 0.06748445
0003a0 5b 6d 64 bc b8 d4 be bd 13 e7 07 bd 8f 5d be bb
       -0.013942088 -0.09317917 -0.033179354 -0.005809493
0003b0 f6 10 10 3d 6e 8d 8c 3c 7f a2 ae bd d5 b2 5d bd
       0.035172425 0.017157283 -0.085270874 -0.054125626
0003c0 b8 a5 84 3d c5 c0 da bd d2 a3 93 3d 26 d4 d5 3d
       0.06476921 -0.10681299 0.072089806 0.10440855
0003d0 f0 bc 50 bd 3c 1b ca bd 05 b4 4c 3d 97 27 94 bd
       -0.050961435 -0.09868476 0.049976368 -0.07234114
0003e0 22 9e 41 bd 02 36 28 3d 57 33 30 3c 49 5e cd 3d
       -0.047269948 0.04106713 0.010754428 0.10027749
0003f0 5d 6a e2 3d cb fd a8 3d 8e dc 61 bd 3e f7 08 3c
       0.110554434 0.08251532 -0.055141978 0.008359728

linear.weight f4 [1, 64]
000000 20 0f d3 3d ad f6 42 3d 05 21 62 3a 60 77 df bd
       0.10305619 0.04759853 0.0008626136 -0.10911441
000010 c0 d7 90 3c 59 30 d1 3d 48 58 a6 3d 37 c5 41 3d
       0.017681003 0.102143 0.08122307 0.04730722
000020 f0 9e 63 3d 7b e9 c9 3c 4c 24 c0 3d 67 0d 05 3e
       0.055571496 0.024647465 0.09381923 0.12993394
000030 0a c4 04 be ab da 99 bd c0 39 a2 bd 4d 3c da bd
       -0.12965408 -0.07512411 -0.07921171 -0.10656033
000040 94 8f c8 3c c8 bc b2 3c 09 ed b3 bc d0 1f f0 bd
       0.024482526 0.021818534 -0.021963613 -0.11724818
000050 6c bc a5 bd 6a 2f af bd b6 78 de 3d 53 36 18 bd
       -0.08092579 -0.085539654 0.108628675 -0.037161183
000060 00 fc 45 bd da f6 c1 bd b5 21 94 3d 97 4c 73 3d
       -0.04833603 -0.09470911 0.072329916 0.059399214
000070 1a 7c 2a bd 0e f1 57 bd 14 46 dd 3d d6 92 8c 3d
       -0.04162226 -0.052720122 0.10804382 0.06863944
000080 44 13 7a 3d f8 88 b9 3d 0c ba 85 bd 11 d4 05 3e
       0.06105353 0.09059328 -0.06529626 0.13069178
000090 99 54 bd bd 2f 8e e9 bd 03 35 a5 bd c6 f7 c0 3c
       -0.09244651 -0.114040725 -0.08066752 0.023555648
0000a0 a8 87 46 bd 8d e0 00 be 57 5a 93 3d ed 49 b9 bd
       -0.048469216 -0.1258566 0.07194965 -0.09047303
0000b0 68 a9 e5 3d 7c a8 97 bd 97 d2 88 bd 6c 15 a6 bc
       0.11213952 -0.07405183 -0.06680792 -0.020273887
0000c0 c9 b9 94 3d db 38 67 bc 83 02 64 3d 86 ff 94 bd
       0.07261998 -0.0141126765 0.055666458 -0.072753
0000d0 f6 0c 4a bd 2a cc dd bd b2 8b d9 bd aa 7f af bd
       -0.049328767 -0.10829957 -0.10622348 -0.08569272
0000e0 34 59 70 3b 97 82 dc bd eb cd 4e 3d 9c 68 31 bc
       0.0036674263 -0.107670955 0.050489347 -0.0108281635
0000f0 97 c2 5f bd 4c 71 99 3d 9f 27 08 3a 29 aa 11 bd
       -0.054628935 0.07492313 0.0005193892 -0.035562668
